predictequity/model/poker_cnnnet2.pth (torch_old, 646595 bytes, 12 tensors)

conv1.weight f4 [12, 6, 5, 5]
00000000: 9b81 9ebc 4736 ffbd 74c0 b1bd 082c d0bd
00000010: cc6f 8fbd e2fc d2bd ea03 62bd 0b4e 51bd
00000020: 8840 ec3c 60b1 8a3b ac06 913b 38c2 93bd
00000030: bc0e 8fbd f9b0 f8bc 7c13 1bbd cef4 f5bd
00000040: 1b2c bebd 6a2c bdbd 64ff 8abd 088d 85bd
00000050: 6b87 bebc ceb9 92bd 6d21 12bd 9acb f33c
00000060: 3ff6 55bd 1a37 8f3c 1793 65bc 8ed0 f1bb
00000070: 9c39 1239 f88b 7c3d b2c9 11bd 4a18 373d
00000080: f093 4bbd c307 b03c d894 2abc 9ebe b4bd
00000090: 5cba 1fbd 28c3 3e3d 3305 8b3d ccbc 8c3c
000000a0: 831e 34bc 788a 94bd 41ef 5a3c 2980 4d3c
000000b0: 5e0e 64bd 298e eebd 61e4 e8bb 591a b53c
000000c0: 22eb a43c 6802 31bc 6e02 1d3e 242b 323d
000000d0: 803e 37bc e7b7 943d f680 22bd 1458 143e
000000e0: 2321 9abc 756b c03d d48f 073d 984b c63c
000000f0: d149 003e f925 993c 4ae3 d53d 0118 40bc
00000100: 28d7 94bd 8d55 ed3d 4dd2 f43d 13e2 dc3c
00000110: 47d6 113d 6358 20bd de37 163e 3a19 e3bb
00000120: 9d2b 9e3d 382e d03d 3877 ca3c aaa4 c73d
00000130: ec00 203d 4e3a 8a3d 18b5 14bb c05f e43a
00000140: 9803 1f3e 5e26 b23d 767d 24bc c091 533d
00000150: b8bc ef3c f86f 733d 9c6c 593d fd6c b33c
00000160: 4c29 e83c 503e d23c 83d7 103e 2de9 07bc
00000170: 3d63 29bc bb29 753b 9cdd 83bc d76d 863d
00000180: 9f98 e93d 73ec 153d 0fb3 013d 802a 133d
00000190: fd7e 903d b153 e13d bf4e b23d 36b0 4b3d
000001a0: 9c64 3b3d f107 ed3c 194c dc3c fba4 99bc
000001b0: d32d 503d a2fc 96bd 9744 fe3d d300 1f3d
000001c0: cb35 bd3d 2bc7 143d c43a 5e3d 6c91 b5bc
000001d0: 967d a0bc 3241 023e 3867 163d 4cd3 0b3d
000001e0: 17e8 173d 694f 983d d0d8 873d 731c 603d
000001f0: 10ce 083c 7282 f3bc b655 a1bd e0db 35bd
00000200: 6f44 0a3b bc9a 993d 66b8 c9bd 80dd ecbc
00000210: adfe 01be 5f5c f6bb 6e4a 96bd e2e3 d9bd
00000220: 8539 0dbd ecc4 5a3c 9553 dcbd cb66 a5bd
00000230: 8788 1abe 8760 afbd f97a f2bc 548e 0ebd
00000240: 2c50 5a3d 8174 35bd f423 71bd d765 7bbc
00000250: 7015 cfbd a966 92bd 7acf e5bd 1bfd 90bd
00000260: 49e8 97bd 8f89 1bbe a475 8fbd af2d 3abe
00000270: 9d81 0abe 17ea a4bd 5c1e a6bd 3fca a3bd
00000280: 94c4 42bd b80f c9bd 8efc 1a3d 9272 28bd
00000290: 9082 3abc 0b45 06be 0b27 b03c 2444 253d
000002a0: e715 8ebd 4889 873c 867d ccbd 1c0e 32bd
000002b0: 05c6 2dbd b06e bdbb 8c6e 883d 9cf7 7a3d
000002c0: 18db 3b3d 60f7 bd3d 215a 22bc e04d 593c
000002d0: 0a30 53bd 3fd4 3a3d 68d7 803c bc84 aa3c
000002e0: a0f8 d43c 2dbf 893d 397b 643d 444a edbc
000002f0: fc6d 4e3d c64e 2e3d d46e eb39 82fa 72bd
00000300: 7c75 64bd fd88 1f3d c073 28bd f83f 7c3d
00000310: 19ec 6fbd 10e7 0a3d a04a 6f3c 24a7 a33d
00000320: 9df9 4bbb 2813 b5bc 7312 ddbc 3aa9 a23d
00000330: 2394 75bd 1ee3 613d 59ef 0b3d bf2e 35bb
00000340: e6e6 693d e2e9 ebbc 4dbd 1c3e 9045 953d
00000350: c5e6 41bd c5eb b43c 00fa 753a 2b72 e9bc
00000360: 4426 a23c 823f 3ebc 585d 913d 8004 64ba
00000370: 1641 093d 1812 2e3d 8372 df3b 464b 80bd
00000380: 74ae 1bbd df9b d33d e245 d33d 4cbf 0b3d
00000390: 1ac9 f43d 5da0 37bd e6df e33d 8405 dc3c
000003a0: e1d9 cb3d 5d15 323d 143d a23d e10f 8f3c
000003b0: fa15 ae3c 88d0 9dbc ab35 ba3d 8d4b 2ebd
000003c0: 63fd 333d 239c 9c3d 59b3 613d 035a 8b3d
000003d0: 729f d3bc 4b0e 0c3d eea7 2c3d fe5d 153c
000003e0: 89a4 293d 8c47 e3bc aea7 ee3d 0d16 013d
000003f0: 0d5c ef3c c091 3b3d 6049 4cbc 2857 833d
-0.01934891 -0.124615245 -0.08679286 -0.10164648 -0.070037454 -0.1030214 -0.055179514 -0.05109982
0.028839365 0.0042325705 0.004425844 -0.07214779 -0.06985232 -0.030357825 -0.03786038 -0.120095834
-0.09285756 -0.09236987 -0.06786993 -0.0652104 -0.023257932 -0.07164346 -0.03567641 0.02976017
-0.05223679 0.01748233 -0.01401212 -0.007379598 0.00013945106 0.061656922 -0.035592742 0.0447009
-0.04970163 0.021488076 -0.010411464 -0.0882542 -0.038996086 0.046572834 0.06788101 0.01717987
-0.010993603 -0.07252973 0.013362707 0.012542763 -0.055677764 -0.11648209 -0.007107303 0.02210729
0.020131651 -0.010803796 0.15332958 0.043498173 -0.011184335 0.07261639 -0.039673768 0.14486724
-0.018814629 0.09395496 0.03309615 0.024205968 0.12528159 0.018694865 0.104437426 -0.011724473
-0.072676 0.11588583 0.11954174 0.02696327 0.03560474 -0.039146792 0.14669749 -0.0069304975
0.07723162 0.101650655 0.024715051 0.09748204 0.03906338 0.06749402 -0.0022690948 0.0017423555
0.15528715 0.08698724 -0.010039678 0.05165267 0.029264793 0.059432954 0.053082094 0.021902556
0.028340004 0.025664479 0.14144711 -0.0082953395 -0.010338602 0.0037408907 -0.016096883 0.06563919
0.11406063 0.03660245 0.031664904 0.035929203 0.07055471 0.11002291 0.08706426 0.049728595
0.045750245 0.02893445 0.026891755 -0.018755427 0.05082495 -0.07372405 0.12415426 0.038819145
0.09238776 0.036322754 0.054255262 -0.02216407 -0.019591134 0.12720183 0.03671953 0.034137055
0.037086572 0.07437021 0.066331506 0.05471463 0.00834991 -0.029725287 -0.07877676 -0.044399142
0.0021097919 0.07500216 -0.09849624 -0.028914213 -0.12694807 -0.0075183357 -0.07338415 -0.10639168
-0.034478683 0.013352614 -0.107581295 -0.08076247 -0.15091144 -0.08563333 -0.029599654 -0.034803703
0.053299114 -0.04430056 -0.05887218 -0.015344105 -0.10111511 -0.07148487 -0.11221214 -0.07079526
-0.07417352 -0.15189193 -0.0700486 -0.1818149 -0.13526006 -0.080524616 -0.08111259 -0.0799756
-0.047550753 -0.09817451 0.03783851 -0.041124888 -0.011383668 -0.13112275 0.021502992 0.040348187
-0.06937771 0.016544953 -0.09984879 -0.043470487 -0.042425174 -0.0057810172 0.0666171 0.061271295
0.04586324 0.09275699 -0.009909184 0.013263196 -0.051559485 0.04561257 0.015727714 0.020815246
0.02599746 0.06725917 0.055781577 -0.028966077 0.050397858 0.042555593 0.00044905266 -0.059320934
-0.055776104 0.038949 -0.041126013 0.061584443 -0.05857477 0.033911765 0.014605194 0.07990864
-0.0031124123 -0.022103861 -0.026986336 0.07942434 -0.059955727 0.055148236 0.034163807 -0.002764627
0.057104968 -0.028798047 0.15306588 0.072886586 -0.04733922 0.02208508 0.0009383261 -0.028496822
0.019793637 -0.011611821 0.07097882 -0.00086981803 0.033509336 0.042497724 0.006819071 -0.06264357
-0.03800817 0.103324644 0.103160635 0.03411798 0.119524196 -0.04483067 0.111266896 0.026858099
0.099536665 0.043477405 0.07921806 0.017463626 0.021250714 -0.019264475 0.090922676 -0.04255252
0.04394282 0.07646968 0.05510268 0.06804278 -0.025832865 0.03419332 0.042152338 0.009116648
0.04141668 -0.027744077 0.11653076 0.03151517 0.029218698 0.045793295 -0.012468666 0.06413108

conv1.bias f4 [12]
00000000: 4e81 3fbd efc3 42bc 15a5 adbc a595 f33c
00000010: bc3b b53c db7f 3f3a e289 823c 0e44 23bb
00000020: debf c63c e1c8 bdbc 6430 1b3c 6357 87bb
-0.046754174 -0.0118875345 -0.021196881 0.029734442 0.02212321 0.0007305124 0.015934888 -0.002491239
0.024261411 -0.023167076 0.009471986 -0.0041302904

conv2.weight f4 [24, 12, 5, 5]
00000000: 413d 18be e339 023c 6e20 643d 65c7 243c
00000010: 6151 f9bc 2191 dc3b 55a0 723c f63d ec3c
00000020: b225 95bc 52b4 8c3d 6d36 f9ba 7339 a33d
00000030: 6813 b738 0cbe df3c ee37 cc3c bb36 593d
00000040: 401f 883d e6a9 b93d 2fbb 9b3d 7238 71bb
00000050: 1cf5 fd3d 4801 143e 0a56 693d 9764 bd3d
00000060: 7563 6a3d 2c6d c7bb 2a79 eabc 5e10 89bd
00000070: e14f 17bd 22b8 50bc 3fe6 26be aa9a 93bd
00000080: 47f2 883b 8ea7 21bd 2434 5b3d 0566 2e3c
00000090: 1863 8bbd f4e0 01bd be32 9cbc 5bac 913d
000000a0: 314b 43bd 6ab4 8b3d 4205 e93d 0598 ab3d
000000b0: 2bdc 21bc 74bc ebbd 09da cfbd 612d 1abd
000000c0: 0a41 9b3b 9889 8d3d ad23 05be 3e2e 8fbd
000000d0: 702c 113d dbc1 203d f582 e5bc fec2 1fbd
000000e0: ee95 153e 3d16 903b 41d6 50bb d4c9 e2bc
000000f0: 7577 ca3d ad2d ef3d 8f47 a73c 7555 f6ba
00000100: 0c2d c1bc 8aa0 333d 8024 073e 4269 af3d
00000110: b8b1 9e3d 46c9 513d e3f2 743e 254b 6f3e
00000120: 83ad 163b 17b5 c83d dd82 d63b 14a2 003e
00000130: 6b4f 12bc 0d61 b7bd 4479 8abd 9b4b aabd
00000140: d02d 8c3d 8b63 aebc 1eb2 303d e9e4 983c
00000150: dfac ecbc 1790 a1bd 36be b7bb 8bfd 10bd
00000160: 5667 e13c 5b32 913c 4742 5bbc 2582 bd3c
00000170: 5225 373d 4d72 acba d702 143c 2794 373e
00000180: 9a5c 8c3d 5928 4fbc 3e64 343d 2b42 283c
00000190: 2f2f ccbd 89bf c0bd 4b84 29bd ff10 82bd
000001a0: 36e3 24bd 318c 17bc 8388 043c 22f4 56bd
000001b0: 2cb5 a53b bb26 50bc 694f a0be d3b8 8cbd
000001c0: 551b 1ebd f070 57bd 2f15 5a3b 3c1b 1c3b
000001d0: a879 283d 9251 bd3d d24e c73c ecd8 463d
000001e0: d408 9e3c 21b8 a43d ec20 473d bf73 143d
000001f0: 97ba ddbb 3c8e d9bc 406b 73bd 9281 8dbd
00000200: b4ae 75bb e708 2cbe 5a5a abbc 8b7f 963d
00000210: 6566 0e3d 3ba1 9d3d cffc 01be 661b 7e3c
00000220: a407 3a3d bc29 933d 37ab 693d cd36 48be
00000230: 0a1f e3ba 8df3 e8bc 99c8 033e f9ae 38bd
00000240: 39f6 34be 735a c13e 7190 543e d6c9 7f3d
00000250: 2dc8 133d 5b17 71be fa9a e03d 0996 0cbd
00000260: a9d5 303b f625 fbbd 3537 243a fee0 8c3d
00000270: 38cb b53c f73a 8bbd 95e9 0abd 1efd 97bb
00000280: 8991 0bbe c8b9 123e 4056 b83d e1d9 f4bb
00000290: 0236 5abd 680c 4c3e ed8f bb3c dc6c 82bc
000002a0: a5db 65bc 372b 48bc f20d 11be 6f80 9e3c
000002b0: 54d0 f03c b74d 89bc 37dd afbc fa36 b03d
000002c0: db0c 79bc e664 2ebd 3b48 a0bc bfbd 2fbc
000002d0: 33a3 9c3d cc6d 6dbd 5301 853c 497f 793d
000002e0: fc0a 5cbc dca5 8a3e f90e 183e 19bd f33b
000002f0: 1e42 143d 62f7 c1bc 771f dcbc c0a3 7e3d
00000300: fb44 383d 9ad7 ceb9 d57a 8c3c c67c c4bd
00000310: 54ac 12be a211 ebbd 2ef0 f2bd 364a fbbc
00000320: efd3 50bc ac7a d73c f2ba debc 6d8f 393d
00000330: 0260 f43c a7f9 62bd 6a23 443d d2f5 143e
00000340: 7689 a5bc d7ba ce3c 6954 0ebe 1107 46bc
00000350: 7d37 2ebd be81 953d 97b6 6d3c 4c5b 4b3b
00000360: dc00 c13c d57a be3b 2cbc 143d aeb8 84bd
00000370: c1a0 4a3e f95b e9bd 95c2 07bc 4247 35bc
00000380: 930e d8bc bb70 0abd 21ee ea3c bdba 0fbd
00000390: f218 90bd 9c36 063c cd1b b3bc 9058 9f3c
000003a0: cc67 91bd 60db 603d 7dbb 833d 563d 6f3e
000003b0: 46dd 603d c4e0 0fbb eef5 ed3c 932a bdbc
000003c0: 4727 79bd 0f7c 19bc ba5c 113d eb18 113d
000003d0: fb1d 853b 867c aebd eb65 a3bc a990 a23d
000003e0: db35 0dbd 6d3e 75bc cf75 46be f60b b13c
000003f0: 41e2 603c 7e35 913b 6d14 76bc 034c d13d
-0.14867117 0.007948372 0.05569499 0.010057305 -0.030434312 0.006731168 0.014808734 0.028838139
-0.018206451 0.06870331 -0.0019013413 0.07969942 8.729735e-05 0.027312301 0.024929013 0.05303071
0.066465855 0.09065609 0.07604062 -0.0036807326 0.124002665 0.14453614 0.05696682 0.092477016
0.057223756 -0.0060860123 -0.028622229 -0.06692575 -0.036941413 -0.012739213 -0.1629877 -0.07207234
0.0041792723 -0.039466433 0.053516522 0.010644441 -0.0680601 -0.031708673 -0.019067165 0.07112952
-0.04767913 0.068215206 0.11377956 0.08378605 -0.009879152 -0.11510554 -0.10149009 -0.037640933
0.004737978 0.069110096 -0.1300189 -0.06991242 0.03544277 0.039247375 -0.028016547 -0.03900432
0.14607975 0.0043971823 -0.0031865987 -0.02768413 0.09886066 0.11678634 0.020419864 -0.0018793779
-0.02358105 0.043854274 0.13197517 0.08564998 0.07748741 0.05121734 0.23920779 0.23368509
0.0022991605 0.09800165 0.006546362 0.12561828 -0.0089300675 -0.08954058 -0.06761411 -0.08315202
0.068446755 -0.0212877 0.043138616 0.01866384 -0.028891025 -0.07888811 -0.0056073917 -0.035398047
0.027515095 0.017724207 -0.013382501 0.023133347 0.044713326 -0.0013156623 0.00903388 0.1792761
0.068536 -0.012643897 0.04404091 0.010269682 -0.09969937 -0.094115324 -0.04138593 -0.06350898
-0.040255748 -0.009249733 0.008089188 -0.052478917 0.0050569978 -0.012704547 -0.31310585 -0.0687119
-0.038600285 -0.05259794 0.0033276787 0.0023819944 0.041131645 0.09244074 0.024329577 0.048546717
0.019291319 0.08042932 0.04861538 0.036243197 -0.006766628 -0.02655708 -0.059428453 -0.06909479
-0.0037488164 -0.16800271 -0.020917106 0.07348546 0.03476562 0.07696768 -0.12694095 0.015509462
0.045417443 0.071856946 0.05704805 -0.19552155 -0.0017327976 -0.028436447 0.1286949 -0.045088742
-0.17672051 0.3776432 0.20758225 0.062448345 0.036079574 -0.23544066 0.109670594 -0.034322772
0.002698282 -0.122631 0.000626433 0.06878851 0.022191629 -0.06798356 -0.033914167 -0.004638328
-0.13629736 0.14328682 0.09000826 -0.0074722623 -0.053274162 0.19926608 0.022895778 -0.015921049
-0.014029418 -0.0122173345 -0.14165476 0.019348351 0.029396214 -0.01676069 -0.021467788 0.08604236
-0.015200819 -0.042576693 -0.019565692 -0.010726391 0.07648315 -0.05796604 0.016235983 0.060912404
-0.013430353 0.27079666 0.14849462 0.0074383137 0.036195867 -0.023677532 -0.026870472 0.062167883
0.04498766 -0.00039452018 0.017148415 -0.09594111 -0.1432355 -0.114779726 -0.11862217 -0.030675035
-0.012745841 0.026303612 -0.027188752 0.045302797 0.029830936 -0.05541387 0.047885336 0.14546898
-0.020207148 0.025235577 -0.13899387 -0.012086646 -0.042533386 0.07300137 0.014508865 0.003102976
0.02355998 0.0058129826 0.036312267 -0.06480537 0.19787885 -0.113944955 -0.008286138 -0.0110643525
-0.026374137 -0.033798914 0.028678002 -0.035090197 -0.07036008 0.008191731 -0.021863842 0.01945141
-0.07099876 0.054896712 0.06432245 0.23363242 0.054898523 -0.002195404 0.029047932 -0.02309159
-0.060828473 -0.009367957 0.03548882 0.035424154 0.004062412 -0.08519845 -0.01994606 0.07937748
-0.03447519 -0.014968497 -0.19380878 0.021612149 0.013725818 0.0044314256 -0.015019518 0.10219576

conv2.bias f4 [24]
00000000: e8d4 383d eb51 95bc 5835 8bbc b70a 3e3c
00000010: 6f81 5a3d 34e2 0fbc 1768 91bd 5160 153b
00000020: 488c d4bc 4e58 9fbc 9dd7 b5bb 15ed cb3c
00000030: 0858 68bb f248 1ebd 4a94 543d 0aea 083d
00000040: 1ee1 11bc a9e5 543d e6ae f83c fed3 08bd
00000050: 2659 0c3d fece e0bc e2f3 68bd 26a9 6b3c
0.04512492 -0.018227538 -0.01699321 0.011599234 0.053346094 -0.008781958 -0.07099932 0.0022793005
-0.025945798 -0.019451287 -0.0055493847 0.024893323 -0.0035452861 -0.038643785 0.051899232 0.033426322
-0.00890377 0.051976833 0.030356836 -0.033405297 0.034264706 -0.027442452 -0.05687321 0.01438359

conv3.weight f4 [48, 24, 5, 5]
00000000: 6c8f 0fbe e749 c23c 18d8 35bc 900f 3d3c
00000010: 0255 23bd 7060 983d a1ed 3e3d 7336 feba
00000020: ebf8 94bc 1962 9bbc 5044 493d e596 81bd
00000030: 6204 3ebd f37c 193d 986e 98bb ce98 213d
00000040: e6a4 bb3c c8f0 06bd 62ed 663d e034 dd3b
00000050: e008 e53c d4b3 4d3d 5f8b 563d 48f2 76bc
00000060: c0ea fa3c a2ad afbd 572f 513c a637 0f3d
00000070: 60f0 bcbb d176 373c 2428 2fbd 11b9 7f3d
00000080: 2c58 4cba 22aa 283b 6240 7f3c 163b 90bd
00000090: b26d 19bd 684d 94bc 0689 883b 9e85 343b
000000a0: 3991 39bc 1cc8 4b3d 3906 9e3c 187f b03c
000000b0: 4741 04bd ba0d f0bd b314 0c3d 983a 5a3d
000000c0: 97fc a73c 39d2 30bd 5e2b ee3d b028 cd39
000000d0: 5e6c f83c 16bf bebc 3603 f33c 640b 5a3c
000000e0: 815f 87bd c649 d1bb ad63 a6bc ca8f debc
000000f0: 6a9c bebc a987 f6bc ec61 47bc d469 f5bc
00000100: 38ba f53c 8b68 db3b d928 b8bc 94ec 1fbd
00000110: 99f9 943c 310a 01bd 82d7 ca3d 9e1a 0ebb
00000120: ceee 183c 91d9 f9bc 68ef 093d efca 0b3e
00000130: e269 f43c 7571 a5bb faef 843a 9702 013d
00000140: cd86 b93c f773 eebc f0a7 833c ee62 dabc
00000150: da3f 1c3c 8bde 923d abfd 873c d947 343d
00000160: e47a d33c 151a 9ebc fb54 c43d 5cd2 563d
00000170: 16bb 75ba 9d13 9dbc fd01 963c 0e12 eb3d
00000180: e758 3e3d 6485 91bc eecb 563d f10c 22ba
00000190: 7bd0 48bd 3954 22bd 1b93 36bc 2db9 dabc
000001a0: fd31 22bd 7e3f c3bc 675d 9c3c ba9c ffbb
000001b0: 3596 023c 7fec 31bd dfca c0bc 3ad3 7abd
000001c0: f84a 45bb 7f10 bbba c2b2 ab3c 36ec cebc
000001d0: 5a93 06bb 95e1 6c3c 4450 edbc f27c ce3a
000001e0: 5fc4 aebd 538d 29bd fd07 efbc 7ef7 94bc
000001f0: 3e02 d6bb 7174 7d3d 8f74 843c 593a 103d
00000200: c47d a8b9 e08b 58bc d9aa 31ba ebea 3abd
00000210: 9797 0b3d ab2a 0bbc b7d5 0fbd d097 40bb
00000220: bd59 eebb 7e64 bbbc 903c e4bc a496 1abb
00000230: 552d 9f3d 0212 6cbc 1f78 5d3c af5c bb3c
00000240: 5f1c 103d 5849 0c3e 43b6 2dbd 5e7a 6cbb
00000250: 4b7a 20bb 2d28 0bbd 31ec 823d 3a14 6f3c
00000260: f8b4 293c c073 15bc f756 053d 8875 fd3c
00000270: 91da ec3c f4d2 c6bc fb16 5dbc 4a31 71bc
00000280: 2c0d 2b3c 4b36 593d 50ba 4c3a ad95 1e3d
00000290: 4674 8f3c 34a0 7d3d 7681 7b3d 4c11 283d
000002a0: c5ee f23c 6513 583d fdad 863d c3af 4fbc
000002b0: 0306 b9bb a8f1 513d 98c2 d63c 806e 10be
000002c0: a7d5 833c 4180 b83c 59d0 403c 603c b0bc
000002d0: afea 0abd c0b9 82bb 7cb3 3fbb 1df5 d43c
000002e0: de1e 983b 346b 2cbd 3e63 cdbc 63f9 ec3b
000002f0: 9dcb eb3c 2a3b 973b da3e 8dbd 45a1 c73b
00000300: fcdc 663c 08f2 f8bb c0f5 223d 650f 6dbd
00000310: 674c 5a3d 9f78 033d 7d64 463a 5e22 20bd
00000320: f8ca b73d fbd5 96bc d312 aa3c 3dfd 13bd
00000330: 3df1 56bb 6ab9 15bc affb eebb beb7 13bd
00000340: 6398 743c cb28 393d cd89 8b3a 67e5 aabc
00000350: 0d79 64bc 829b 8fbc 4bb4 2b3d d4d8 1ebd
00000360: eaa7 123d a691 5e3c aca5 953c 8998 9c3c
00000370: 5dd7 cc3c b08a 263c d349 3ebd 4f7c c03c
00000380: c705 053c dc45 cebd 283b f2bc 3940 39bd
00000390: a5de eebc 44d3 503c 255a d8bc ec85 5cbd
000003a0: 08e3 993c c2a9 41bc bfef 4bbd 4af4 7e3d
000003b0: 59c5 753b 5076 8bbb 8f24 38bd 18f0 103c
000003c0: 6bf9 ea3d f33d 0e3d f178 98ba 252d 3c3c
000003d0: 0601 efbc 1f24 ff3d d327 7dbc 0464 013d
000003e0: 6e09 2f3c 55b0 24bd dad3 aa3d bb57 f6bc
000003f0: 83be efbc 53ee 1f3d 091e 9ebc aa25 21bd
-0.14019555 0.02371688 -0.011098884 0.011539355 -0.03987599 0.07440269 0.04661334 -0.0019394889
-0.0181851 -0.018967675 0.049137414 -0.06327609 -0.0463909 0.037472676 -0.0046518557 0.039452367
0.022905778 -0.03294447 0.05637873 0.006750688 0.027958333 0.050220326 0.05237901 -0.015072413
0.030629516 -0.0857804 0.012767634 0.03496518 -0.0057659596 0.011197762 -0.04276289 0.062432352
-0.0007795121 0.0025736173 0.015579315 -0.0704252 -0.03745813 -0.018103316 0.004166725 0.0027545462
-0.011326128 0.049751386 0.019290077 0.021544978 -0.032288816 -0.11721368 0.034199428 0.053278536
0.020506186 -0.043169234 0.116293654 0.00039130962 0.030325111 -0.023284476 0.029664617 0.01330838
-0.06610013 -0.0063869683 -0.020311201 -0.027168173 -0.023267943 -0.030093985 -0.0121693425 -0.02995769
0.029996023 0.006695812 -0.022480415 -0.039043978 0.018185424 -0.03150386 0.09904386 -0.0021683346
0.009334279 -0.030499252 0.03367558 0.13651632 0.029835645 -0.0050489255 0.0010142319 0.03149661
0.022647286 -0.02910803 0.01607129 -0.026658501 0.009536708 0.07171353 0.01660045 0.04401383
0.025815435 -0.019299546 0.09586521 0.052446708 -0.0009373886 -0.019174391 0.018311495 0.11478053
0.046471503 -0.0177638 0.052440576 -0.0006181738 -0.049026947 -0.039631102 -0.011143471 -0.026699627
-0.039598454 -0.023833986 0.019087506 -0.0078006657 0.007970382 -0.04343843 -0.023534236 -0.061236598
-0.00301045 -0.0014271884 0.020959262 -0.025259119 -0.0020534606 0.01445808 -0.028968938 0.0015753789
-0.085335486 -0.041394543 -0.029178614 -0.01818442 -0.006531029 0.061878625 0.01616886 0.035211895
-0.0003213716 -0.013216943 -0.00067774724 -0.04563419 0.034080114 -0.00849406 -0.035115924 -0.0029387362
-0.007273881 -0.022875067 -0.02786091 -0.0023588324 0.07772318 -0.01440859 0.013517409 0.022871343
0.035183307 0.13699853 -0.042410146 -0.0036083679 -0.0024486955 -0.03397386 0.06392706 0.014592225
0.010358088 -0.009121835 0.03255364 0.030939832 0.028912814 -0.024270512 -0.0134942485 -0.014721224
0.010440152 0.053030293 0.0007809745 0.03871696 0.017511498 0.06192036 0.06140276 0.04103212
0.02965487 0.05275287 0.065761544 -0.012676182 -0.0056464686 0.051255852 0.026215836 -0.14104652
0.016093088 0.022522094 0.011768424 -0.021513164 -0.033915218 -0.0039894283 -0.0029251268 0.025995785
0.0046423515 -0.042094424 -0.025071736 0.0072318777 0.028783614 0.004615207 -0.068967536 0.006092223
0.014090773 -0.0075972117 0.039785147 -0.05787601 0.05329552 0.032097455 0.00075680745 -0.039095275
0.0897426 -0.01841258 0.02076093 -0.03613018 -0.0032797598 -0.009138444 -0.0072931866 -0.036063902
0.01492891 0.04520492 0.0010645926 -0.02086134 -0.013944876 -0.017530207 0.041919988 -0.038781002
0.035804667 0.01358453 0.018267475 0.019115703 0.025005037 0.010164902 -0.046457123 0.023496775
0.008119053 -0.10071918 -0.029569224 -0.045227263 -0.0291589 0.012745682 -0.026410172 -0.053838655
0.018785015 -0.011820259 -0.049789187 0.06224469 0.0037501662 -0.0042560473 -0.04495674 0.008846305
0.11473354 0.034727048 -0.0011632723 0.011485373 -0.029175293 0.124580614 -0.015451389 0.031589523
0.010683401 -0.040207226 0.08341189 -0.03007113 -0.029265648 0.039045643 -0.019301431 -0.03934256

conv3.bias f4 [48]
00000000: 6b15 e0bd 8168 cdbd 157c bd3c 63de c03d
00000010: 3c60 ad3d fbd7 e63b 5d7a 1bbd 380e c3bd
00000020: 5ff2 d5bd e57c a2bc 9513 423c 7eeb d93d
00000030: cb82 dcbd 0977 a2bd 50c9 5e3c ba28 d03d
00000040: 80e3 b43d 4ec3 71bd 70e3 7f3d b9bb d1bd
00000050: 8521 11bd faf3 e03b 2c44 c43d 6559 a6bc
00000060: 5887 08bd f117 f13b 7f90 0cbb 7197 96bd
00000070: 63ab 9f3d 766d bfbd 5253 c13d e369 dabd
00000080: 9e98 293d a0d4 753b 9a48 263d b8ae b03d
00000090: 339f a4bb 822c adbc d857 14bd d07f 6d3d
000000a0: 2a80 cfbd 3891 98bd 3793 c4bb a68f bf3c
000000b0: f094 cebd 8298 3fbd 9988 96bd 165f 21bd
-0.10941585 -0.10029698 0.023130456 0.09417417 0.08465621 0.00704479 -0.03795849 -0.095241964
-0.10446619 -0.019834945 0.011845489 0.1064062 -0.10767134 -0.079328604 0.013597801 0.10164018
0.08832455 -0.059024148 0.06247276 -0.102408834 -0.035432357 0.006865022 0.09583315 -0.020306299
-0.0333322 0.0073575904 -0.002144843 -0.07353104 0.07796361 -0.0934705 0.0943972 -0.106647275
0.041405313 0.0037510768 0.040596582 0.08627075 -0.005023861 -0.021139387 -0.036216587 0.05798322
-0.10131867 -0.07449573 -0.0059989947 0.023383927 -0.10087001 -0.046776302 -0.07350273 -0.03939732

fc1.weight f4 [100, 1200]
00000000: c085 04bc bcd9 2f3b c7e8 1abc e1a5 c63d
00000010: 4591 b53d c4f5 2cbd 282f 83bc 4645 d93c
00000020: 0ffb e83d ed2f af3d bc08 bd3c 7102 3b3c
00000030: f4c9 f3bb a79e 173e d3ac a13d c16e 86bd
00000040: ddfa 863c f63d 0bbc b12d 1a3e 6fc0 ff3d
00000050: 6936 17bd 07ca 313d 0799 f83c 8c0c e43d
00000060: 7d61 cd3d 5c0f 25bd 552d 8b3c 4428 92bd
00000070: 5b8e 013e e1ec ed3d 57f3 c33c e7ad f8bc
00000080: cb80 bd3d 8daa 153e 8aee e23d a7c7 cabb
00000090: 2dd1 9a3c 36d1 8339 2a88 213e 99f8 dc3d
000000a0: 46af afbc aed9 363d 044b 203d d116 3b3e
000000b0: c768 033e e52e ab3c 0bf1 2e3d 5e3f 923d
000000c0: 449c 093e 255e d43d 9f9d 12bd ae2c cebd
000000d0: 6cd3 0abe 4da7 c5bc ab3c ad3d 0a17 093d
000000e0: 4fdf 323d a54e e73d fafc a2bc 3ae4 de3d
000000f0: 431a 8c3c aa80 553d f28b de3a d1db 9a3d
00000100: ec7b c63d 4325 783d 0aba 4c3e 15a9 bb3d
00000110: 7ea3 a63d 13ff ba3d d0a3 433e 2b14 ba3b
00000120: 3af1 183e 4c5a 5e3d 1453 c63d b978 28bd
00000130: cad2 fbbc 7aa9 8a3c 88d7 0ebe 4615 fabd
00000140: a8b1 7c3d f217 a43d 5470 003d 1cb5 04be
00000150: 15de d8bd 51ff 9bbd 7587 27bc e9a5 0dbd
00000160: 666d 30be c39e cfbd 5999 3e3c f654 90bd
00000170: 4a29 4fbd db39 3dbe b0ab 0bbe c37e 53bc
00000180: 73fd 74bd 6f70 38bc 8432 12be 3bf9 e0bd
00000190: 2e5c 57ba 6c9e 153b eb40 513d f4e2 c8bd
000001a0: fab0 d2bd 1663 08bd fea2 473d c2a0 5ebd
000001b0: 8649 9ebd 2e04 ddbd 89ec c83c 1c14 bb3c
000001c0: 9542 a6bc 5119 10be e242 afbd b9fd 053d
000001d0: e43d a8bd 6d1e 91bc 0a74 2bbe 4864 b9bd
000001e0: 2aa4 283c 5eb2 e9bc 992b 38bd 6cdd bcbd
000001f0: 00a0 e4bd 6b30 0f3d cdc8 f33d 10f9 213e
00000200: 9a74 70bc 9071 03be d7de e03d 8429 3e3e
00000210: d62b c43d 187e 77bc c0fa 12be 1df7 e6bb
00000220: 6ed4 273d 0713 7c3d cb4b 18bd e0ff e2bd
00000230: 075b 213d 26a5 ccbc 198d 1e3d 7339 6bbd
00000240: ee09 fdbd b391 d7bd 34eb 9abc f335 0a3d
00000250: ca42 1bbd b695 19be 3ead 5abd 0627 0fbe
00000260: 0bc8 90bd 7775 793d 8c69 cf3d 8995 4cbe
00000270: eadd ccbd 618f ffbd 83c6 16bc b6f4 c73d
00000280: dc17 853e 3888 013e 05df 3f3d fdfe edbd
00000290: 56d3 a83d 7e3f 213e 2801 d83d 06a7 e13d
000002a0: 49f5 013d e49f db3d ce29 02bd ad54 1a3d
000002b0: c4c1 dfbc 82b5 3b3e 1c8c a33d 1288 123c
000002c0: e89e ab3d f60b 59bd 0902 673d 901c b63d
000002d0: a5c4 96bd 5aa7 69bd e52c 333d ed9b 973d
000002e0: d432 8d3d d8b2 0b3e 662b 423b a727 cd3d
000002f0: b0cb 243e f8bc a63d 2d28 d9bb 366a 1f3e
00000300: 725b 8a3c fade 133e 4e5a c73d 8319 c73c
00000310: be00 453d e2e3 8cbc b664 f63d 46ab 863d
00000320: 63ff 953b f91f 903c cb65 a5bc 8baa bd3d
00000330: d3ca ab3d 2598 3abd d5ec 9bbd 16d4 8f3d
00000340: 2e78 e53d 2de8 b33d ea6a 313c aa22 65bd
00000350: 867c 50bd c542 403e 0359 f03d 38fd acbd
00000360: a405 d33c 6ead abb9 eb64 1a3e b9fc ad3d
00000370: 1452 e7bd af0a aebc f6ba 7b3d f2e3 bb3d
00000380: ed16 bc3d d55d 983d d0d9 733d 92f8 fa3d
00000390: 5492 5839 aa93 57bd daba 69bd fb04 fe3d
000003a0: 034a 8dbd 748b 6cbd 2797 24bd f66e 853c
000003b0: e4f5 91bc 98bb 8ebd 700f aabd 7a26 fabc
000003c0: 938a 203e 4228 d5bd 5226 553d 7d37 8dbd
000003d0: 98c5 8bbc 7404 3ebd 9cdb 1abd 6d30 4f3c
000003e0: 3487 13bd 04d8 67bd df44 eb3d d8ad 563d
000003f0: 04d4 243e 4792 f3bb d4cd a8bd 83bc c5ba
-0.008088529 0.002683266 -0.0094549125 0.09699608 0.088655986 -0.042226568 -0.016013697 0.02652229
0.113760106 0.08554063 0.023075454 0.011414156 -0.007439846 0.14806615 0.07894292 -0.065640934
0.016477043 -0.008498659 0.15056492 0.12487876 -0.036917124 0.04340556 0.030346407 0.111352056
0.1002836 -0.04029785 0.01698939 -0.07136586 0.1265196 0.11617447 0.023919744 -0.03035636
0.09253081 0.14615841 0.11080654 -0.006188351 0.01889857 0.0002514214 0.15774599 0.10789604
-0.021445882 0.04464119 0.03913404 0.18270423 0.12832938 0.020896384 0.042710345 0.071409926
0.13438517 0.10369519 -0.03579485 -0.10067116 -0.13557214 -0.024127627 0.08458837 0.033469237
0.043669995 0.11294297 -0.01989602 0.108833745 0.017102366 0.052124657 0.0016978963 0.07561458
0.09691605 0.06058241 0.19992843 0.09163109 0.081366524 0.09130683 0.19105458 0.0056786737
0.1493577 0.054285333 0.09683815 -0.041130755 -0.03074016 0.016926516 -0.13949406 -0.12211089
0.061692864 0.0801238 0.031357124 -0.12959713 -0.10589234 -0.07617057 -0.010225167 -0.034582052
-0.17229232 -0.10137703 0.011633241 -0.07047455 -0.050576486 -0.18479101 -0.13639712 -0.01290864
-0.05981202 -0.011257275 -0.14277083 -0.10985037 -0.0008215335 0.0022830022 0.0510873 -0.09808913
-0.10287662 -0.03329762 0.048739426 -0.05435253 -0.07728867 -0.10791813 0.024526851 0.022836737
-0.02029542 -0.14072157 -0.08557679 0.032712672 -0.0821493 -0.017714703 -0.16743484 -0.0905233
0.010293046 -0.028527435 -0.044963453 -0.0922192 -0.1116333 0.034958284 0.11903534 0.15817666
-0.0146762375 -0.1283629 0.10980003 0.18570524 0.095786735 -0.015105747 -0.14353466 -0.007048501
0.040974073 0.061541583 -0.037181657 -0.110839605 0.03939345 -0.024981093 0.03870878 -0.057427835
-0.123554096 -0.10525837 -0.018910982 0.033742856 -0.037905492 -0.14998516 -0.053387873 -0.1397973
-0.07069405 0.06090304 0.10127553 -0.19978918 -0.10003264 -0.12478519 -0.009202602 0.09763472
0.25994766 0.1264962 0.046843547 -0.11620901 0.08243434 0.15746877 0.105470955 0.11018185
0.031728063 0.10723856 -0.03177815 0.03767841 -0.027314074 0.18330958 0.07985708 0.0089435745
0.08379918 -0.052989922 0.056398425 0.088921666 -0.07361726 -0.057044365 0.043743987 0.07402787
0.0689446 0.13642442 0.0029627918 0.10017329 0.16093326 0.08141512 -0.006627104 0.1556786
0.016889308 0.14440528 0.09734021 0.024304157 0.04809641 -0.017198507 0.12030928 0.065756366
0.0045775636 0.01759337 -0.02019014 0.09261044 0.08388295 -0.045555253 -0.076135315 0.07022874
0.11204563 0.087845184 0.010828713 -0.05594126 -0.050900005 0.1877547 0.11735728 -0.08446735
0.025759526 -0.00032744877 0.1507756 0.08495469 -0.11294952 -0.021245329 0.061457597 0.091743365
0.0918406 0.07439772 0.059533894 0.12254442 0.00020653877 -0.052631058 -0.05706296 0.12403294
-0.06898882 -0.05775018 -0.040183213 0.016288262 -0.017817445 -0.069693744 -0.08303726 -0.030535925
0.15677862 -0.10408069 0.0520385 -0.06895349 -0.017061993 -0.046390966 -0.037807092 0.012645823
-0.03601761 -0.056602493 0.114877455 0.052411884 0.16096503 -0.007433209 -0.082423836 -0.0015086088

fc1.bias f4 [100]
00000000: c2b5 95bd 96fc f0bc c3b6 fd3d 8eeb 87bc
00000010: 4265 a4bc c6c9 de3d 7852 a0bc e34a 7abd
00000020: da29 053d 8c34 aebb 4ba0 b9bd f07b f63c
00000030: caae aebd 1188 debc b016 033d 01e9 b5bd
00000040: e793 81bd 4360 6cbd e8a5 c2bc 4ad2 b6bd
00000050: cdc5 4abd 9db2 d8bd 0529 b6bc bb6a 813d
00000060: e4e7 81bd fe82 ca3d 5491 d03c 3ec0 b7bc
00000070: 392f de3c 7ced 97bd ece0 7cbc 60cd b13c
00000080: a3fe a1bd bdcb 863c 34ac 0fbd 3f06 debd
00000090: c1cc c2bd 47bc d3bd 8dc6 dfbc 0bd3 4dbd
000000a0: 44d6 87bd aefb 86bd eea5 df3d 48e7 99bd
000000b0: ebb1 f8bd d765 64bb 829f 69bb 887d 69bd
000000c0: 4ff6 36bd 41df 8bbd ba3c d5bb f203 bd3d
000000d0: 8f4e 1e3d c699 9fbd a875 0a3e 09a0 d2bd
000000e0: 9bb3 c5bd 75c6 8ebd da05 883c fa72 9b3c
000000f0: 7695 0dbd 3b84 82bd 7b05 11be 514e c3bc
00000100: b827 81bd 81aa aebc 4ae2 c33d 194b b8bd
00000110: decb 5cbc 971d ccbc afee 00be 4d66 b1bd
00000120: 20bc d6bb edd5 edbb f615 06bd d3c8 34bc
00000130: 3071 5fbc 20c8 423d f9fe 8fbd ba51 59bd
00000140: 0faf 93bd b9b3 853d 0e33 3bbd d450 8bbc
00000150: 6b1e dabc 69ad 92bd 35eb 3d3d b5eb d0bd
00000160: 94a0 51bd 1f35 d2bd cd74 1a3d 7bba 84bc
00000170: bfda bcbd 3d95 73bd d34e cebd 2502 4ebd
00000180: e265 aebc 62ae 33bd 06a9 82bc c165 e0bd
-0.07310058 -0.029417317 0.12388375 -0.016591813 -0.020067815 0.10878329 -0.019570574 -0.061106574
0.032510616 -0.0053163227 -0.090637766 0.030088395 -0.08529432 -0.02716449 0.03200406 -0.088823326
-0.06327038 -0.05770899 -0.02376075 -0.08926828 -0.049505044 -0.10580943 -0.022236357 0.06319185
-0.06343058 0.09888266 0.025459923 -0.022430535 0.027122127 -0.074183434 -0.015434485 0.021704376
-0.07909896 0.016454572 -0.035076335 -0.10841035 -0.0951171 -0.103386454 -0.027316356 -0.050250094
-0.06632665 -0.06590973 0.109203205 -0.075148165 -0.1214331 -0.003485074 -0.0035648053 -0.05700448
-0.044668492 -0.06829692 -0.0065074833 0.09229268 0.038649138 -0.07793002 0.13521445 -0.102844305
-0.09653398 -0.069714464 0.016604353 0.018975724 -0.034566365 -0.06372877 -0.14162247 -0.023841055
-0.06306404 -0.021321537 0.095646456 -0.08998699 -0.01347634 -0.024916453 -0.1259105 -0.086620905
-0.006553188 -0.007258168 -0.032735787 -0.011034208 -0.013637826 0.047554135 -0.07031054 -0.053056456
-0.07211124 0.0652842 -0.045702986 -0.017006315 -0.026625833 -0.071619816 0.04636689 -0.102012075
-0.05117853 -0.10264038 0.037709046 -0.016202202 -0.0922141 -0.059468497 -0.10073628 -0.050295014
-0.021288816 -0.043867476 -0.015949737 -0.10956908

fc2.weight f4 [30, 100]
00000000: 6eec 25be 8ad9 8a3b f888 c53d 9f5f 7bbd
00000010: 2543 533d 3441 be3d 438e 89bd 6ebd a73c
00000020: 7e45 ed3d bcb7 8a3d 95aa c33d 9c96 9f3d
00000030: 15b8 f63c 5d1d 5b3d d262 4a3d 666f 453c
00000040: 1b22 84bc 021d 8b3d 554b 2f3d 489e 8ebd
00000050: 7f96 193c c5cb 2bbe d9fb 0e3e d8c5 e73d
00000060: f3e3 bb3d daec 6d3d 12fc 8d3d 1444 1bbd
00000070: f716 a63d 3af3 703d 4e36 c13d fbba e13c
00000080: 0c11 bf3c 2df8 843d 3d7e 89bb b498 c13a
00000090: 1422 cc3c 94c2 47bd d231 cc3d 56bd 65bd
000000a0: 76d7 3f3d f3f5 cd3d 4d24 c73d 17b2 7ebd
000000b0: b7e8 083e 7c38 ac3c b613 5e3c 38af 71bc
000000c0: 4dcd 423e 94b4 81bc bd30 3fbd 64ea c73d
000000d0: 1331 2e3d 76ab 963d 5db4 753d b445 c13d
000000e0: edbf 4cbd 6df1 933d c52e 513d c7fb 31bd
000000f0: c253 44bc 779a 76bd 5da6 2abd e0b2 1cbd
00000100: 1d6a 813d fab6 d03d 5494 19ba dcb9 92bd
00000110: 9afc ed3d 355e 2e3d 8a11 69bd d44e fc3c
00000120: 6c1e 3b3d c302 e3bd 1ac6 2f3d af98 b63b
00000130: 67ca 543c 65c6 743d e7e2 b1bc b254 e93d
00000140: 9947 36bd b601 233e 40d0 763d 2175 493d
00000150: eeb6 863d 4055 633d 50cc 493d 53e6 aabd
00000160: 6755 9cbd d682 503c 6a86 093d da11 0a3d
00000170: 0593 263e 2091 94bd d684 0ebe 375c 34bd
00000180: 6452 113b c3b5 bbbd f06b ba3d 886e 3c3d
00000190: 0123 3cbe bfe4 d63c c62f 553d f9d2 e63c
000001a0: a189 9a3d 7dd5 d93d 94f5 e6bd d19d debc
000001b0: 552f 91be 23f4 453d 46c1 31bd a325 87be
000001c0: 100e 0abe ab2c 0c3d 5214 78be dcd7 303e
000001d0: b293 9f3d 330f b6bb 3d86 0b3d 4b48 fdbc
000001e0: 11e6 0cbe f785 23be a441 b23e 062d 7fbe
000001f0: 3333 2fbd b13f ba3d 1975 af3d bd6d a33c
00000200: 490a eb3d bcc6 e2bd b27f c4bd d940 f4bd
00000210: c7b2 2dbe 882d 1dbc 8ce6 3b3d 252e 0b3e
00000220: 2cfa b53b 9e29 943d 5d83 923d 0e21 b0bc
00000230: dd30 abbc acba 8f3d b06c f03d a405 0d3d
00000240: 39cc 183e c1a6 c6bb fbeb e73d f360 4d3d
00000250: 928c 29be 23b6 663c c113 be3d 5300 96bc
00000260: 423e 0a3a 6bd0 203c fc4a f13d ecb0 1dbd
00000270: abc4 7ebc 80b4 763c 044d 193c e19f 99bd
00000280: a883 713c e584 1cbd 6c23 a53d 3ceb 43be
00000290: ee19 32ba 0ca8 f63d 3c98 a43d d8aa 96bd
000002a0: 1346 203e 4fb7 cdbd 6142 9f3d b75c 1c3e
000002b0: 63e3 763c 9232 81bc 830c e1bc 666d 86be
000002c0: d80b 65bc 5e24 913c b7e4 9bbd 9e0e 36bd
000002d0: 7fdf 7b3c 59a6 84bd a449 75be 529b 19be
000002e0: 14a9 3a3d 7797 69bb e942 17be 047d a2bc
000002f0: 2151 dd3b 3db7 fabc ab05 adbc f78f 493d
00000300: 82b9 a2bd ce89 df3d 72e3 453d a7d2 d13b
00000310: 207b 093e f721 5f3d a754 df3d 7102 edbd
00000320: 30fe 473c ca6f 0fbd df2f 27be d618 2abd
00000330: 7d6f 70bd 0016 d73a ec3f 84bc 2289 8a3b
00000340: 3596 163d 1d43 b7bc 332a a4bd 2ea5 a53c
00000350: 2b10 a5bd 7b51 2b3b 7dcf 7ebc 5259 cb3c
00000360: bb69 9cbd fb41 bbbd ab65 a6bd 4817 893c
00000370: 9e1c 583d 58ee 383c 2b7b 95bd 2d1f bcbc
00000380: 2c0a 8f3c 1e22 0dbd 8034 debc 5a85 4ebd
00000390: df45 82bc f0d3 413c 4d7f f3bd bc7f a5bb
000003a0: 5aa7 81bd 4085 a2bd 3fd7 d2bd c95b a83d
000003b0: 2224 603d 34ee c3bc 63e4 a8bc 4f1f 733d
000003c0: 75ba 83bd a815 c53c e85f febc c175 643c
000003d0: 4c8c 7cbd 30af 3abd 736e 813d e1ff 983d
000003e0: b04d 8bbd 136f 3abd cf1c aebd c81f b4bd
000003f0: 1b24 403c 87bd 9d3d 7a54 e9bc 12e9 913d
-0.16203472 0.0042373585 0.09645265 -0.06137049 0.051577706 0.0928978 -0.067165874 0.02047607
0.1158552 0.06773326 0.0955402 0.07792398 0.030117074 0.0534948 0.04941065 0.012050485
-0.016129544 0.06792642 0.04279645 -0.069637835 0.00937426 -0.1677695 0.1396326 0.113170326
0.09174337 0.058087207 0.06932844 -0.03790672 0.08109849 0.05882571 0.09434186 0.02755498
0.023323558 0.06492648 -0.004195957 0.001477024 0.024918593 -0.04876955 0.0997044 -0.056088768
0.04683634 0.10056677 0.09723721 -0.06218156 0.13370024 0.021023028 0.013554504 -0.014751248
0.19023629 -0.015833177 -0.04667734 0.09761503 0.04252727 0.07356922 0.05998646 0.09437123
-0.049987722 0.07223783 0.051069994 -0.043453004 -0.01198286 -0.060205903 -0.041662563 -0.038256526
0.063190676 0.1019115 -0.00058585894 -0.07164356 0.116204455 0.04257031 -0.056901492 0.030799307
0.04568331 -0.11084511 0.042913534 0.0055724005 0.01298771 0.059759516 -0.02171464 0.113931075
-0.044501875 0.15918621 0.060257196 0.04918397 0.0657786 0.055501223 0.049267113 -0.08344712
-0.07633477 0.012726506 0.033575453 0.03370843 0.16267021 -0.07254243 -0.1391786 -0.044033255
0.0022174353 -0.09165528 0.09102619 0.04600385 -0.18372728 0.026232122 0.052047513 0.028176771
0.07545782 0.10636423 -0.11277309 -0.027174862 -0.28356424 0.04832853 -0.04339721 -0.26395902
-0.13481927 0.034222286 -0.24226502 0.17269844 0.077918425 -0.005556011 0.034063566 -0.030918261
-0.13759638 -0.15969072 0.34815705 -0.24919519 -0.042773437 0.090941794 0.085672565 0.019949788
0.11476571 -0.11073062 -0.095946684 -0.11926431 -0.1696273 -0.009593375 0.045874164 0.13591821
0.0055535045 0.072345 0.07153962 -0.021500137 -0.020897323 0.07018027 0.117394805 0.034429207
0.14921655 -0.006062359 0.113243066 0.050141286 -0.1655753 0.014081511 0.092811115 -0.018310701
0.00052735594 0.009815316 0.1178188 -0.038498804 -0.015549819 0.015057683 0.009356741 -0.075011976
0.014740862 -0.038212676 0.08063397 -0.19132704 -0.0006794025 0.12043771 0.08036849 -0.073568046
0.15651731 -0.10044729 0.07776333 0.15269743 0.015068862 -0.015771184 -0.027471786 -0.2625534
-0.013979875 0.017717537 -0.07611983 -0.044447534 0.01537311 -0.06477041 -0.23953873 -0.15000656
0.0455714 -0.0035643259 -0.14771618 -0.019835003 0.006754056 -0.030604953 -0.021120867 0.04920956
-0.07945539 0.10914956 0.048312612 0.0064032855 0.13425875 0.05447575 0.10904818 -0.11572731
0.012206599 -0.03501872 -0.16326855 -0.04152759 -0.058700074 0.0016409755 -0.016143762 0.0042277733
0.036764342 -0.02237087 -0.08015861 0.020220365 -0.080597244 0.0026141095 -0.015552399 0.024822865
-0.07637354 -0.09143444 -0.081248604 0.016734734 0.052761666 0.011287294 -0.07298883 -0.022964085
0.017460905 -0.034456365 -0.027124643 -0.050420143 -0.015902458 0.011830315 -0.11889515 -0.0050506275
-0.06330748 -0.07935572 -0.10294961 0.08220632 0.05472196 -0.023917295 -0.020616716 0.05935603
-0.06432048 0.024058178 -0.031051591 0.01394409 -0.061657235 -0.045577228 0.06319895 0.0747068
-0.06801927 -0.045516085 -0.085015886 -0.08795124 0.011727358 0.07702165 -0.028482664 0.07124533

fc2.bias f4 [30]
00000000: 41f1 ce3d e2bd 2cbd fe43 15be 9aca 0ebd
00000010: 78b1 48bd c015 e0bd 45fb c2bd 0982 82bc
00000020: 5cda 94bd 3964 2e3c 7c87 ac3d 5e44 97bc
00000030: 3037 423d 195e b3bd 4009 f2ba c144 ccbd
00000040: 6715 b7bd 51f1 42bd 373e 3b3e 0592 c63d
00000050: 20d4 0a3e 6ba3 723d aaa9 593e 78b6 ca3c
00000060: 714d 143d 4a81 f5bb 71bd 7a3d 8243 8b3d
00000070: 3df3 26be 78c4 63bd
0.10104609 -0.042173274 -0.14576718 -0.034861185 -0.048997372 -0.109416485 -0.09520582 -0.015931146
-0.07268211 0.010644012 0.08424279 -0.018465217 0.047415912 -0.08758182 -0.0018465891 -0.09974051
-0.08939629 -0.04759342 0.18285452 0.0969582 0.13557482 0.05923788 0.21256128 0.024745211
0.036206666 -0.007492219 0.06121582 0.067999855 -0.16303726 -0.05560729

fc3.weight f4 [6, 30]
00000000: 3ab5 363e da72 763d e28b 13be e677 98bd
00000010: 4e62 bfbb e7cd fbbd 234f a7bd 9a82 b43d
00000020: fcd7 e03d 7203 c1bd ddef 6ebd 11ce a6bc
00000030: f9c9 a93d 5a80 163e c3be 2ebe 80f2 a7bd
00000040: 9f1f a93b 1869 54bc 0da3 aa3d f6c9 d03d
00000050: cca5 3d3e 9645 39bd fbaf 173e bae8 a93c
00000060: 3445 edbd 013b 39be 3a99 a73c e57a 57bd
00000070: 6f83 8cbe e2a1 e73d c2d8 2e3e 118c 743d
00000080: d230 143d 8e23 1e3e 325d 3e3d 2b34 07bd
00000090: 6972 06be 06bc 52bc faa5 91bd 4ba9 0abe
000000a0: 52e9 473c 940a bfbd 9dbd 0b3e db7c 013e
000000b0: d98b 86bc 85cc 36bd 4dde 803d 9505 b6bc
000000c0: 49c2 a83d 1cc8 223e ad24 933d 02b1 75be
000000d0: 6960 143e 126f 1d3e ad43 b23d 6e5d 083e
000000e0: 40ec be3c ac63 303e 0057 ee3d 9176 2e3e
000000f0: c22f 1b3d f134 80bd 6647 13be 4f69 b7bd
00000100: 8f65 ccbd 6b9e fbbd 957f 0bbe 9dae f63d
00000110: 0e2c 07be 363e 153c a7af 303e 06b9 1abe
00000120: a8f7 ecbe f840 313d 0617 6a3c b7e6 e63d
00000130: 1c8a f53c 698a 483e 8e08 3b3d ea41 763e
00000140: e41d 86bd ca68 fb3d 5b5f 1c3e b82c 05be
00000150: 560f e9bd a7cb 16be 5acf 413b 00e8 eebc
00000160: 026f 13bd dd39 f63d c35d 76bc a05c b33e
00000170: 3a11 c73d b0e7 dbbd 5e09 e0bd fda3 5cbe
00000180: 97dd 923d 2c3d 793e e300 20be 0eed 16be
00000190: e586 cd3d 6b08 45be 56d8 42be 890c f33c
000001a0: 426d d0bc 6948 843e 830b 443d 69c1 18bd
000001b0: 9a1a d23d fc94 91bd 9e19 5abe 4802 4fbe
000001c0: fa8c 323e 827b 183e c975 9b3d 3910 67bd
000001d0: 3781 d4be c8fa da3d 8ca3 33be f895 993d
000001e0: fea2 ff3d 1f20 eabe 4183 883d e8d3 273d
000001f0: de09 07bd 2201 19bd 2a8d f43c 663a bd3d
00000200: 8c30 f339 05ae 043d abd0 11bf c725 203e
00000210: 9743 dfbe be3e 99bd 1846 143e 6c44 fabd
00000220: 6244 01be b368 2bbe fab3 eabe fc17 0cbe
00000230: 0f67 3abd 5b2d 4abd bfe7 323e 3fa9 383d
00000240: 9922 8d3d 8849 1fbc 2604 e5bd ea2b 7bbd
00000250: 3c4c 5bbd e56f c03d e3d5 31be cae1 a2bd
00000260: 7723 96bc 01a1 093e c0e2 0f3e d726 3dbe
00000270: 362d e0bd 560e edbd 1329 e23d 060d b5bd
00000280: e3c8 1fbe 7df0 a53d f1c2 32bc e453 a73d
00000290: 2a13 9abd e6e1 00be be10 273e 14b2 8b3c
000002a0: 6b2f 133d 0a6e 82bd 144c 7fbd 8344 033e
000002b0: 16ca 38be 1249 99bb 919f d73d 2186 60be
000002c0: b3d7 9abd f3e4 d0bd d92c 2cbe e833 6b3c
0.1784257 0.060168125 -0.1440883 -0.07444744 -0.0058405763 -0.12295132 -0.08169391 0.08813973
0.10978696 -0.09424485 -0.05833422 -0.020361932 0.08290476 0.146974 -0.17064957 -0.0820055
0.00516124 -0.012964509 0.08331881 0.10194771 0.18520278 -0.045232378 0.14813225 0.020740855
-0.11585465 -0.18088914 0.020458806 -0.052607436 -0.27444026 0.113101736 0.17074874 0.05970389
0.03617937 0.1544325 0.046475597 -0.033008736 -0.13129582 -0.012862211 -0.07111736 -0.13541143
0.012201624 -0.093281895 0.1364655 0.12645285 -0.016424106 -0.04462864 0.062924005 -0.022219459
0.08240182 0.15896648 0.0718473 -0.23993304 0.14489903 0.15374401 0.087043144 0.1331689
0.023306012 0.17225522 0.11637688 0.17037417 0.037887342 -0.06260098 -0.14382705 -0.08955633
-0.09980308 -0.12286075 -0.13622887 0.120450236 -0.132004 0.0091090705 0.17254506 -0.15109643
-0.46282697 0.04327485 0.014287716 0.11274474 0.029973082 0.1958405 0.045662455 0.24048582
-0.0654867 0.12275846 0.1527075 -0.1300534 -0.11379878 -0.14726125 0.0029573054 -0.02916336
-0.035994537 0.12022755 -0.015037003 0.35031605 0.097200826 -0.1073755 -0.10939287 -0.21546932
0.07171171 0.24339741 -0.15625338 -0.14738867 0.10035495 -0.19241492 -0.19027838 0.029669063
-0.025442723 0.25836495 0.04786254 -0.037293825 0.1025898 -0.07108495 -0.21298835 -0.20215714
0.17436591 0.14890864 0.07590825 -0.056411956 -0.41504833 0.10692364 -0.17542857 0.074993074
0.1248226 -0.4572763 0.0666566 0.040973574 -0.032968394 -0.037354596 0.029852469 0.09239654
0.00046384742 0.03239252 -0.5695903 0.15639411 -0.43606254 -0.0748267 0.14479864 -0.12220082
-0.12623742 -0.16739158 -0.45840436 -0.13681024 -0.04550844 -0.04935966 0.17471217 0.04508328
0.068913646 -0.009722121 -0.11182432 -0.061321177 -0.0535395 0.09396342 -0.17366748 -0.07953222
-0.018327458 0.13440324 0.14051342 -0.18471847 -0.10946123 -0.11575 0.110429905 -0.08840375
-0.15603976 0.0810251 -0.010910735 0.08170298 -0.075231865 -0.12586173 0.1631498 0.017052688
0.035933893 -0.063686445 -0.062328413 0.12819104 -0.1804584 -0.0046779 0.10528482 -0.21926166
-0.075606726 -0.101999186 -0.16813983 0.014355637

fc3.bias f4 [6]
00000000: 0309 34bd 2151 da3d 5eed 16bd 5665 423e
00000010: 397a c23c 360a 263e
-0.043953907 0.10660005 -0.036847465 0.18983969 0.02373992 0.16214833
